new/2/hate_speech_model.pt (torch, 473113 bytes, 13 tensors)

embedding.weight f4 [70, 100]
-0.30876443 -0.053065836 -1.205056 0.2859076 0.4917133 -1.2197795 0.39863297 -0.7358967
-0.97737116 0.5156203 -1.4282953 -0.5854428 0.60090643 -1.2661219 0.035245243 1.087668
0.7048278 0.22423466 -0.2942942 0.1397829 -0.20308271 1.3510455 -0.87672997 2.052361
-0.70362496 -0.44384184 0.06417065 -0.13805977 -0.17965545 -0.25237754 -1.9965762 1.6350238
-0.7333657 1.1650457 -1.6046247 -1.406578 0.41012043 1.1832052 0.03384292 -1.3662703
1.0591059 -0.72376263 0.2405654 -0.5005671 1.003668 0.7130847 0.19552101 -0.5764439
0.9052542 -1.1966745 -0.82046705 0.21998876 0.86365813 -0.9235593 -0.54310685 -0.85150373
-1.7038887 -0.8933419 0.1289232 -1.1997912 1.4273435 -1.1771063 -0.029454214 0.7062181
0.19013804 -0.1242894 -0.3511558 1.0351173 0.13154218 -0.5881555 0.88039196 -0.0762744
1.1652632 1.1445024 -2.1917095 1.4739892 0.56766564 -0.10361479 0.29977793 -1.2346784
-0.7295136 -0.968126 -0.3020337 0.5436321 -0.8559217 -0.8086218 -0.360085 -0.23277748
-0.91731995 -1.0290695 0.4897051 -1.056174 -1.369106 -0.11294747 1.0502213 -0.09495502
-0.65686196 -0.25172707 -0.31943905 1.1547537 0.87523437 -2.485258 -0.8983965 -0.43219978
-0.5633724 -0.02909239 -0.95833695 1.1845583 0.2094879 -1.2373064 -0.023517568 0.30727613
0.046134405 -0.48493928 -0.9482382 -0.02813549 -0.6321935 0.42678642 -2.370291 0.1859579
1.0267414 2.0143511 0.5524098 0.1694013 -0.3651299 0.8058792 0.2822994 -0.19392578
0.8847923 0.45288944 -0.07672832 0.5159988 -1.8060423 1.1620846 0.07724661 -0.17667039
0.7880991 -1.3592923 -0.01019263 3.0536728 -0.5070312 0.14945675 -0.69561225 0.48718908
1.099819 0.070977695 0.13190812 0.18784657 -0.39104697 -0.58246475 0.18486327 -0.87382394
1.3130256 -0.81987834 -0.67029643 1.3814447 -0.28523803 0.78352845 -0.36515898 0.9312894
-0.64823323 -0.3458133 0.83613694 -0.063909136 -2.2190306 -0.29431996 -0.25543296 0.20645988
-0.18581362 0.18499643 0.65989166 -1.4552333 0.8521873 -0.46959838 1.1859995 0.29537067
-0.1475132 -0.38662183 -0.8919422 -0.33235145 -0.05341609 1.5840685 -0.32168952 0.25095877
0.94886833 0.0050310395 -1.576131 -0.10732624 -0.83349127 1.9595456 -0.2790234 -0.40233982
0.5075592 -0.57550085 -1.2337607 0.3023753 -1.3473817 -0.61105806 -0.8884721 -0.65576684
1.9266615 1.0887048 1.2513423 -0.6671759 1.2918942 0.88393044 -1.9740841 -1.508308
-0.64854884 0.023799678 0.19887345 1.1261613 0.566417 -1.5440512 -0.21629968 0.43895867
-0.3365817 1.1182318 0.8127566 -0.8824186 -0.5087965 0.078528106 -0.17978938 -1.1684394
-1.7896423 -0.7365999 0.7339994 0.6060958 -0.82892954 -0.86654097 -0.99403125 -0.5293287
1.1396412 -0.6145095 -2.1139345 -1.213681 -1.5695934 2.4118133 -0.75412124 -0.852239
0.8917545 0.053578638 1.9872754 -0.99249303 0.89111125 -1.9405656 0.2671269 -0.17211615
0.6190555 -0.10794588 1.0849856 -0.17118032 1.1409507 0.6997214 0.0044012736 -1.918474
00000000: 5f16 9ebe 905b 59bd 463f 9abf 7b62 923e
00000010: d8c1 fb3e bc21 9cbf 9f19 cc3e ba63 3cbf
00000020: ff34 7abf b1ff 033f 61d2 b6bf 94df 15bf
00000030: 01d5 193f 4810 a2bf 515d 103d b438 8b3f
00000040: 986f 343f c59d 653e bbad 96be 4023 0f3e
00000050: eaf4 4fbe 0fef ac3f 6071 60bf e259 0340
00000060: c420 34bf 3d3f e3be e76b 833d 8a5f 0dbe
00000070: 99f7 37be a137 81be cf8f ffbf 7648 d13f
00000080: dbbd 3bbf 3820 953f 5864 cdbf bf0a b4bf
00000090: 4efb d13e 4573 973f e09e 0a3d f2e1 aebf
000000a0: c890 873f 8248 39bf c756 763e 2a25 00bf
000000b0: 3178 803f b88c 363f a936 483e d491 13bf
000000c0: bdbe 673f a12c 99bf 210a 52bf bc44 613e
000000d0: b318 5d3f 626e 6cbf 0d09 0bbf 26fc 59bf
000000e0: 0619 dabf 0eb2 64bf 7104 043e c292 99bf
000000f0: 31b3 b63f 6bab 96bf f749 f1bc b6ca 343f
00000100: 8cb3 423e 718b febd b1ca b3be b97e 843f
00000110: feb2 063e 5c91 16bf 5e61 613f c135 9cbd
00000120: 5827 953f 0e7f 923f f844 0cc0 aeab bc3f
00000130: 8952 113f fe33 d4bd 7e7c 993e f109 9ebf
00000140: 67c1 3abf 1bd7 77bf 29a4 9abe 792b 0b3f
00000150: af1d 5bbf d701 4fbf 105d b8be 385d 6ebe
00000160: 7bd5 6abf 8db8 83bf a0ba fa3e b630 87bf
00000170: de3e afbf 0151 e7bd a76d 863f c777 c2bd
00000180: 1b28 28bf 5fe2 80be 848d a3be f8ce 933f
00000190: 5c0f 603f 780e 1fc0 50fd 65bf 4a49 ddbe
000001a0: 2c39 10bf 2a53 eebc 9255 75bf 9b9f 973f
000001b0: ff83 563e 0e60 9ebf eaa7 c0bc 4c53 9d3e
000001c0: 6ef7 3c3d f649 f8be bdbf 72bf 667c e6bc
000001d0: 6fd7 21bf c083 da3e d9b2 17c0 bf6b 3e3e
000001e0: 436c 833f 21eb 0040 bb6a 0d3f 8977 2d3e
000001f0: 4ef2 babe 194e 4e3f 8c89 903e 7b94 46be
00000200: c081 623f 20e1 e73e bd23 9dbd 7f18 043f
00000210: 652c e7bf 30bf 943f 7833 9e3d 15e9 34be
00000220: ddc0 493f 4afd adbf fdfe 26bc 606f 4340
00000230: cccc 01bf 310b 193e a513 32bf d970 f93e
00000240: dec6 8c3f c15c 913d ec12 073e da5a 403e
00000250: 4f37 c8be 691c 15bf cc4c 3d3e edb2 5fbf
00000260: 3911 a83f 8ce3 51bf 8c98 2bbf 2ed3 b03f
00000270: b80a 92be 5295 483f 1ef6 babe fb68 6e3f
00000280: 9df2 25bf 710e b1be 120d 563f cbe2 82bd
00000290: 9904 0ec0 1bb1 96be 1cc8 82be 386a 533e
000002a0: ed45 3ebe b46f 3d3e a9ee 283f 1645 babf
000002b0: f228 5a3f 336f f0be d5ce 973f d33a 973e
000002c0: b30d 17be 4cf3 c5be 5356 64bf f829 aabe
000002d0: d4ca 5abd c2c2 ca3f 7db4 a4be ab7d 803e
000002e0: 09e9 723f 6bdb a43b a9be c9bf dccd dbbd
000002f0: af5f 55bf 64d2 fa3f 28dc 8ebe 7cff cdbe
00000300: 66ef 013f 0654 13bf dfeb 9dbf efd0 9a3e
00000310: 0177 acbf 4d6e 1cbf e872 63bf 56e0 27bf
00000320: d89c f63f ae5a 8b3f fc2b a03f 0acc 2abf
00000330: ca5c a53f 4449 623f caae fcbf 3d10 c1bf
00000340: 4c07 26bf 8bf7 c23c 7ba5 4b3e 0e26 903f
00000350: b400 113f 78a3 c5bf aa7d 5dbe 31bf e03e
00000360: 7054 acbe 3822 8f3f d110 503f 2fe6 61bf
00000370: 7d40 02bf 58d3 a03d b51a 38be 6c8f 95bf
00000380: 0013 e5bf d091 3cbf 62e7 3b3f 1829 1b3f
00000390: ba34 54bf a1d5 5dbf d578 7ebf 1682 07bf
000003a0: c3df 913f 7f50 1dbf b44a 07c0 e659 9bbf
000003b0: 70e8 c8bf 265b 1a40 170e 41bf 562c 5abf
000003c0: 064a 643f 4675 5b3d 0a5f fe3f 0614 7ebf
000003d0: de1f 643f 7464 f8bf dbc4 883e 373f 30be
000003e0: 6c7a 1e3f bb12 ddbd cfe0 8a3f e549 2fbe
000003f0: ac0a 923f f120 333f 8f38 903b 8e90 f5bf

lstm.weight_ih_l0 f4 [256, 100]
0.046063624 0.0940108 0.11425391 0.06215545 0.07207655 -0.052874792 0.04268081 -0.110881254
0.10282831 0.07571967 -0.074886695 0.10911469 -0.122541614 0.06346305 0.13900946 0.10607037
0.0810166 -0.09700213 0.07155779 0.028602907 -0.003694149 -0.10791899 -0.020366674 0.0067502414
0.030208739 -0.020225136 -0.026866673 -0.117138036 0.013384873 0.13123257 0.12729661 0.092578635
-0.024348099 -0.08052988 0.115921944 -0.019552499 -0.100644834 -0.10010689 0.01215954 -0.068186745
0.024623865 -0.024640236 0.01606558 -0.11364076 0.07925675 -0.0089822505 0.022722326 0.100684114
0.104307376 -0.014338337 0.02185464 -0.018486584 -0.099889554 -0.09195253 -0.030133044 -0.09105204
0.0028180229 0.021645274 -0.10310637 0.029788464 0.07767242 0.08458848 -0.1229259 0.10773736
-0.037846446 -0.087187484 -0.053813644 -0.09231478 0.08045158 0.084583424 -0.030697973 -0.08379345
0.07459674 0.013035972 -0.064664364 -0.028071156 -0.09177914 0.039588224 0.08986393 -0.066664085
0.12432688 -0.0018957056 0.05711397 0.017723583 -0.11634743 -0.053799443 -0.041255295 -0.072396845
0.042555846 0.115570836 -0.054341286 -0.0926168 -0.096686214 0.031519953 0.045653474 -0.012361878
-0.03374403 0.11196942 -0.0020384367 0.02784812 0.10957267 -0.07080437 -0.03619626 0.08540637
-0.07508602 -0.079807445 0.112506054 0.120353684 -0.11538601 0.04486892 0.123450615 0.087258145
-0.10169253 0.09525622 -0.109809674 -0.015310865 -0.02880323 0.10330866 0.05711929 -0.088003576
-0.08081504 -0.040981412 -0.010060467 0.10286665 -0.0383745 0.09391887 -0.11542837 -0.054122187
0.043668542 0.0317082 0.021020897 -0.13031064 -0.08259002 -0.06001711 0.027437868 0.084173
-0.038407147 0.04917705 -0.044699375 0.028780574 -0.114096 -0.013648286 0.04145286 0.06701564
-0.042148825 0.11713864 -0.093729176 0.074279696 0.061861902 0.023071732 -0.056415647 0.06077212
0.1168796 -0.07702 -0.05826366 0.12919475 0.06478383 -0.05513151 0.088475764 -0.0771206
0.002624854 0.05536938 -0.043462746 -0.04324036 0.091013804 -0.0699669 0.09503674 0.05196112
0.06697166 0.10000008 -0.025916444 0.080921285 -0.053497516 -0.06806046 0.1283911 -0.092249215
-0.1312047 0.00605343 0.0018298537 0.041896578 -0.082273036 0.045632385 0.11195685 -0.09292008
0.07593166 0.04802191 0.024346681 -0.04622888 -0.049130965 -0.022939982 0.053304113 0.0613658
-0.04334512 0.061362445 0.03767471 -0.1161703 0.058544558 0.03696069 -0.05356756 0.106639884
-0.09541244 0.08408168 -0.00076980627 0.06660283 -0.10364744 -0.054517172 0.09274083 -0.040113248
0.09179429 0.022988366 0.07227125 -0.03819066 -0.11494327 0.014467147 -0.11572525 -0.031734332
0.103153504 0.009578952 -0.08506002 -0.049152646 -0.019186761 -0.13129501 -0.0033488662 -0.02645316
-0.059149086 -0.09286922 0.04628729 -0.05924066 0.040108845 0.088924564 -0.03218766 -0.087211736
0.029810833 0.10604311 0.085100695 0.04182355 0.08342179 0.0045360243 -0.05825467 0.07972441
0.034489006 -0.073875226 -0.13457482 0.036382847 0.09129429 0.0017263431 -0.08920785 -0.018489078
-0.048738092 0.0021705239 -0.08960574 -0.07948304 -0.017194135 -0.056234896 -0.117641754 0.048932895
00000000: 36ad 3c3d bc88 c03d f4fd e93d b796 7e3d
00000010: df9c 933d 3d93 58bd 13d2 2e3d b615 e3bd
00000020: a697 d23d ea12 9b3d 325e 99bd 8677 df3d
00000030: 19f7 fabd eaf8 813d 7f58 0e3e 6c3b d93d
00000040: 08ec a53d 0da9 c6bd e48c 923d a550 ea3c
00000050: 8919 72bb a204 ddbd 03d8 a6bc 2131 dd3b
00000060: 5178 f73c 2faf a5bc 7f17 dcbc 11e6 efbd
00000070: 3a4c 5b3c d561 063e 0b5a 023e de99 bd3d
00000080: aa75 c7bc daec a4bd 7c68 ed3d 902c a0bc
00000090: e11e cebd d704 cdbd cf38 473c 7ea5 8bbd
000000a0: fdb7 c93c 52da c9bc f79b 833c 7dbc e8bd
000000b0: 5d51 a23d 4a2a 13bc 2c24 ba3c 7933 ce3d
000000c0: 1b9f d53d 58eb 6abc 8108 b33c 2d71 97bc
000000d0: e592 ccbd 9c51 bcbd 93d9 f6bc 7e79 babd
000000e0: 94ae 383b 6e51 b13c 6f29 d3bd f006 f43c
000000f0: b812 9f3d ba3c ad3d 93c0 fbbd 68a5 dc3d
00000100: e004 1bbd 5a8f b2bd b26b 5cbd 880f bdbd
00000110: ccc3 a43d 133a ad3d 517a fbbc e69b abbd
00000120: 2dc6 983d d494 553c c06e 84bd 7bf5 e5bc
00000130: b4f6 bbbd 4327 223d 950a b83d 2e87 88bd
00000140: 179f fe3d 5379 f8ba 57f0 693d 0c31 913c
00000150: 9047 eebd ce5c 5cbd 50fb 28bd cc44 94bd
00000160: 0a4f 2e3d 67b0 ec3d f894 5ebd e0ad bdbd
00000170: 6c03 c6bd 111b 013d 23ff 3a3d 7989 4abc
00000180: 2e37 0abd 3950 e53d 4b97 05bb be21 e43c
00000190: a367 e03d e201 91bd 8842 14bd 89e9 ae3d
000001a0: b3c6 99bd 1672 a3bd 9369 e63d fe7b f63d
000001b0: 804f ecbd 79c8 373d add3 fc3d 66b4 b23d
000001c0: 2c44 d0bd b115 c33d e5e3 e0bd 6cda 7abc
000001d0: c0f4 ebbc 7e93 d33d ebf5 693d 383b b4bd
000001e0: 5b82 a5bd 20dc 27bd a8d4 24bc c0ab d23d
000001f0: 942e 1dbd 8958 c03d b665 ecbd 3aaf 5dbd
00000200: c9dd 323d 75e0 013d 0434 ac3c 2770 05be
00000210: f524 a9bd 80d4 75bd 61c5 e03c e562 ac3d
00000220: d050 1dbd e06d 493d b116 37bd 3dc5 eb3c
00000230: 2aab e9bd 109d 5fbc 79ca 293d 7f3f 893d
00000240: 3fa4 2cbd 62e6 ef3d 15f5 bfbd f41f 983d
00000250: e862 7d3d ee00 bd3c 1814 67bd 30ec 783d
00000260: 925e ef3d a9bc 9dbd e0a5 6ebd a14b 043e
00000270: 62ad 843d 94d1 61bd c832 b53d 68f1 9dbd
00000280: be05 2c3b 01cb 623d fe05 32bd ce1c 31bd
00000290: 7265 ba3d ce4a 8fbd 9fa2 c23d 2fd5 543d
000002a0: 7028 893d d8cc cc3d b94e d4bc 0fba a53d
000002b0: 3620 5bbd 4863 8bbd f578 033e 28ed bcbd
000002c0: 865a 06be da5b c63b b4d7 ef3a bf9b 2b3d
000002d0: c47e a8bd 06e9 3a3d a249 e53d e24c bebd
000002e0: 0f82 9b3d 9fb2 443d b172 c73c 7e5a 3dbd
000002f0: 8d3d 49bd a1ec bbbc 6a55 5a3d b55a 7b3d
00000300: a78a 31bd 3057 7b3d cc50 1a3d b2ea edbd
00000310: 6bcc 6f3d 1864 173d a869 5bbd 0366 da3d
00000320: 9967 c3bd 0433 ac3d d3cc 49ba 1167 883d
00000330: 1c45 d4bd 664d 5fbd e7ee bd3d ca4d 24bd
00000340: a5fe bb3d 1952 bc3c f302 943d cf6d 1cbd
00000350: 6167 ebbd 9d07 6d3c 5c01 edbd dcfb 01bd
00000360: 2542 d33d 09f1 1c3c f333 aebd 4954 49bd
00000370: 8e2d 9dbc 3372 06be a778 5bbb 4cb4 d8bc
00000380: 5046 72bd 3832 bebd be97 3d3d 56a6 72bd
00000390: 2c49 243d 151e b63d 35d7 03bd 119c b2bd
000003a0: d935 f43c 212d d93d 4649 ae3d 2c4f 2b3d
000003b0: 0bd9 aa3d eea2 943b 739c 6ebd 8d46 a33d
000003c0: 5844 0d3d e54b 97bd fbcd 09be 2e06 153d
000003d0: 80f8 ba3d 7646 e23a 9bb2 b6bd 6876 97bc
000003e0: 98a1 47bd 593f 0e3b 3783 b7bd 01c8 a2bd
000003f0: b7da 8cbc 9056 66bd 29ee f0bd dc6d 483d

lstm.weight_hh_l0 f4 [256, 64]
-0.12304133 0.03943565 -0.006079807 -0.067781225 -0.04621243 0.018102353 -0.10576654 -0.0012975512
0.08441659 0.073764674 -0.023032835 -0.056101818 -0.10020431 0.0148498 0.0056571416 0.039108045
0.05180038 -0.033016477 0.055205077 0.011017929 0.026578123 0.05995575 -0.009306925 0.01935297
-0.05629436 0.030827098 -0.037867196 -0.08535232 0.06319906 -0.07631174 -0.06399644 0.10258235
0.074639566 0.020234186 -0.054744016 0.05128081 -0.0048627374 0.107271716 0.06384551 -0.008358349
0.022632878 -0.022162007 -0.08777106 -0.0798958 -0.11197584 0.090374276 0.13084514 0.04338852
-0.0041221855 -0.07706588 -0.019533118 0.077887274 0.04973049 -0.07446321 0.1300155 -0.007845072
0.04985207 -0.054372843 -0.10394707 -0.054386634 0.016881062 -0.117157154 0.041087963 -0.08279932
-0.10876182 0.09213725 0.0325564 0.08327139 -0.031102322 0.043698505 0.0065555405 0.022436896
0.09155025 0.103206374 -0.003673029 0.084323235 -0.0689352 0.101328865 -0.07076877 -0.07475763
-0.045728967 -0.09499455 -0.057507303 -0.0043766974 -0.019016307 0.040734734 -0.036866844 -0.12754928
-0.027383523 0.053425394 0.10026235 -0.047877032 -0.03343991 0.027594691 0.10302061 0.007243479
0.06731951 0.03425074 0.11821547 -0.040256694 0.122107066 -0.0803358 -0.09250621 -0.08878222
-0.08400884 -0.072760046 0.0911067 -0.06588881 -0.108775556 0.11868395 0.0030513448 0.08549949
0.064200655 -0.068488166 0.056863472 -0.078896694 -0.0023296399 0.07325188 -0.069625445 -0.02392103
-0.1011047 0.060842004 0.10339404 0.061611276 -0.051369723 -0.008224927 -0.061899748 0.11815407
-0.10626736 -0.1107091 0.06218185 0.03619007 -0.10868284 0.091652066 0.04247664 0.095947556
-0.07900672 0.094054125 -0.043594003 0.09283654 -0.1149097 0.11974043 0.04470583 -0.10112382
0.09456869 0.03469327 0.07842857 -0.08743825 0.11164521 0.10822352 -0.118854366 0.06023284
0.08550637 -0.023904888 -0.037729107 -0.02311739 -0.09747047 0.123312496 0.08048107 0.024239639
-0.013422835 -0.046996582 -0.06888477 0.04990537 -0.0793781 -0.055448946 0.03605224 0.05305893
-0.07836344 0.056599382 -0.03746309 0.12162999 0.0789656 -0.092636056 0.024951862 -0.118781276
0.042156637 0.0067867036 0.08222519 0.053602975 0.019163342 -0.047810454 -0.1048332 0.09029095
0.09039692 0.046112537 0.039492138 -0.021669125 -0.08181613 -0.06315233 0.09759864 -0.09645636
-0.040427197 -0.08235129 -0.050385114 0.016959537 -0.08260725 0.09411596 0.09162981 -0.017986843
0.05528722 -0.10434682 0.08224607 -0.089044146 0.064379856 -0.12874232 -0.046833273 0.010583328
0.10017146 0.09492285 -0.007877607 0.13211404 -0.042797305 -0.0049515744 0.085805096 -0.05052358
-0.0895386 -0.10722085 -0.10730742 0.11682406 -0.045981012 -0.036161423 -0.06982328 -0.08132371
0.03551756 0.03735984 -0.07027249 0.11056729 0.07358878 -0.12483397 0.04700017 -0.090204895
-0.055429537 0.034823444 0.11909432 -0.054882407 -0.017968474 -0.0013567674 -0.05362646 0.110620625
-0.058527812 0.06165864 -0.040380094 -0.10977974 0.06979335 0.06746424 -0.11844337 -0.04036753
-0.088470146 0.05874276 0.058794707 -0.10075997 0.033729117 -0.09553864 -0.101945266 0.051565368
00000000: 18fd fbbd 4787 213d 1e39 c7bb e2d0 8abd
00000010: 3f49 3dbd 634b 943c 219c d8bd 9812 aaba
00000020: 9be2 ac3d ef11 973d 5baf bcbc 05cb 65bd
00000030: eb37 cdbd 934c 733c 8b5f b93b c22f 203d
00000040: a32c 543d 493c 07bd b81e 623d 8b84 343c
00000050: 5dba d93c 2994 753d 137c 18bc 1f8a 9e3c
00000060: ea94 66bd 1c89 fc3c a21a 1bbd 32cd aebd
00000070: 826e 813d 5449 9cbd 9110 83bd b216 d23d
00000080: a1dc 983d 2ac2 a53c 433b 60bd d40b 523d
00000090: 9957 9fbb 46b1 db3d 6fc1 823d 75f1 08bc
000000a0: 9668 b93c 198d b5bc 50c1 b3bd 69a0 a3bd
000000b0: 9753 e5bd 2616 b93d 45fc 053e 29b8 313d
000000c0: 6613 87bb b7d4 9dbd eb03 a0bc 5d83 9f3d
000000d0: 33b2 4b3d 2b80 98bd c922 053e 9e88 00bc
000000e0: af31 4c3d 0fb6 5ebd 34e2 d4bd 85c4 5ebd
000000f0: 274a 8a3c 17f0 efbd da4b 283d b192 a9bd
00000100: 84be debd 74b2 bc3d dc59 053d 318a aa3d
00000110: 4cca febc 34fd 323d dccf d63b 95cd b73c
00000120: b37e bb3d dd5d d33d 33b7 70bb a9b1 ac3d
00000130: e62d 8dbd 8285 cf3d 38ef 90bd 871a 99bd
00000140: 4c4e 3bbd 818c c2bd c78c 6bbd 666a 8fbb
00000150: 16c8 9bbc 77d9 263d b001 17bd 479c 02be
00000160: 6953 e0bc 96d4 5a3d 5956 cd3d b51a 44bd
00000170: 49f8 08bd 430e e23c 78fc d23d b55a ed3b
00000180: d0de 893d 814a 0c3d f41a f23d 34e4 24bd
00000190: 4513 fa3d 1987 a4bd e573 bdbd 74d3 b5bd
000001a0: d40c acbd 3803 95bd 2696 ba3d b6f0 86bd
000001b0: b8c5 debd 9210 f33d 12f9 473b 5b1a af3d
000001c0: a27b 833d 8643 8cbd ace9 683d 9794 a1bd
000001d0: dfac 18bb 1505 963d c997 8ebd 09f6 c3bc
000001e0: fb0f cfbd 7735 793d 41c0 d33d 1b5c 7c3d
000001f0: 0f69 52bd d8c1 06bc 978a 7dbd c3fa f13d
00000200: b4a2 d9bd 74bb e2bd 65b2 7e3d 0a3c 143d
00000210: 1c95 debd 14b4 bb3d fcfb 2d3d 2780 c43d
00000220: 46ce a1bd 739f c03d a08f 32bd 1521 be3d
00000230: c755 ebbd 783a f53d 761d 373d 011a cfbd
00000240: 3bad c13d 881a 0e3d 289f a03d d312 b3bd
00000250: 3ea6 e43d 4ba4 dd3d eb69 f3bd b6b6 763d
00000260: f71d af3d 2fd4 c3bc d689 1abd ae60 bdbc
00000270: 999e c7bd 438b fc3d 42d3 a43d 3592 c63c
00000280: 73eb 5bbc 7d7f 40bd 7513 8dbd 9369 4c3d
00000290: fc90 a2bd 6f1e 63bd 83ab 133d 5254 593d
000002a0: 037d a0bd c1d4 673d e672 19bd 2519 f93d
000002b0: b7b8 a13d f9b7 bdbd d967 cc3c 9943 f3bd
000002c0: 70ac 2c3d ff62 de3b ae65 a83d cb8e 5b3d
000002d0: 71fc 9c3c e5d4 43bd cab2 d6bd 76ea b83d
000002e0: 0522 b93d 80e0 3c3d 82c2 213d 7383 b1bc
000002f0: 378f a7bd 0256 81bd cce1 c73d e98a c5bd
00000300: fd96 25bd cba7 a8bd 9f60 4ebd baee 8a3c
00000310: fd2d a9bd debf c03d 69a8 bb3d 2559 93bc
00000320: da74 623d c9b3 d5bd a170 a83d c75c b6bd
00000330: 96d9 833d 07d5 03be 3fd4 3fbd b265 2d3c
00000340: b226 cd3d e966 c23d 1411 01bc e748 073e
00000350: 3a4c 2fbd d140 a2bb 95ba af3d d0f1 4ebd
00000360: 0360 b7bd 9b96 dbbd fec3 dbbd 7441 ef3d
00000370: 9656 3cbd 001e 14bd 82ff 8ebd 0c8d a6bd
00000380: dc7a 113d a206 193d 06eb 8fbd 1a71 e23d
00000390: b7b5 963d f4a8 ffbd 4083 403d 58bd b8bd
000003a0: 150a 63bd 07a3 0e3d b9e7 f33d 60cc 60bd
000003b0: 9f32 93bc 8fd5 b1ba 6ba7 5bbd 118d e23d
000003c0: dcba 6fbd c58d 7c3d 9965 25bd 33d4 e0bd
000003d0: d1ef 8e3d b12a 8a3d 7092 f2bd 6c58 25bd
000003e0: d62f b5bd 409c 703d b8d2 703d 3e5b cebd
000003f0: 8b27 0a3d c3a9 c3bd aec8 d0bd 3536 533d

lstm.bias_ih_l0 f4 [256]
0.08410316 -0.05132294 -0.09756038 0.0978765 0.016980097 -0.031765997 0.09462598 0.124775335
-0.039649457 -0.070115745 -0.11909158 -0.037663 0.07858386 0.06657569 0.028574795 0.049557213
-0.079693146 0.0064671435 0.03104699 -0.087718196 -0.10657981 0.02960288 -0.01911548 -0.051496554
-0.12206487 0.1178293 0.07598607 0.0021561123 0.10986285 0.09709746 -0.013642832 0.056760926
0.10725181 0.1009268 -0.07115249 0.11299575 -0.07696986 -0.05014045 -0.04701757 0.092165336
0.07036239 0.030215653 0.044038698 0.016613707 0.104991496 0.03764792 0.12283557 -0.0653781
-0.07737532 -0.008281885 -0.031966273 0.11640325 0.025423162 0.06739471 -0.027079582 -0.04488825
0.07240353 0.04534191 -0.05698208 0.06643652 0.12350345 0.104386464 0.027176594 0.020198938
-0.05680395 0.08750039 -0.017894698 -0.028614653 -0.0038117243 -0.103272416 0.09725566 -0.03918479
0.11652172 0.05172429 0.097871415 0.0052434974 -0.040984295 -0.068797894 0.022040596 0.096289136
0.021215545 -0.10975866 -0.007101994 -0.06112188 0.10903374 -0.03409293 -0.07181923 -0.047321785
0.041479416 -0.049011115 0.031119619 -0.11167112 0.08117922 -0.020924233 0.021413071 0.10963741
0.10212504 0.05947772 0.0063589076 -0.034040898 -0.0007395542 -0.11638185 0.032162353 0.009940357
0.074878134 0.024851205 0.031769056 -0.01878984 0.059501577 0.020642223 -0.09843566 -0.08812394
0.09005733 -0.020944808 -0.04412324 -0.06310164 0.08889297 -0.062259804 -0.081698544 -0.009931009
-0.11788028 -0.096023 0.093306005 -0.114417374 0.10096454 -0.10525031 -0.036216933 -0.017149836
0.0055843587 -0.056825217 0.059948917 0.034724366 0.08786827 -0.06929886 -0.03876658 -0.09821286
-0.08552525 -0.034491234 0.088410996 0.003741774 -0.09158007 -0.11398624 0.08904742 0.006744218
0.05821306 0.010641472 -0.08556113 0.023927713 -0.038228367 -0.0063156183 -0.06836976 -0.04967661
0.08800879 -0.036841482 -0.00082546694 0.093632735 -0.038002472 -0.06845184 -0.050162017 -0.11657108
-0.06502411 0.021362174 0.0683756 0.018669885 0.11796028 -0.045564443 0.07355289 -0.11991131
-0.11269314 0.0031194321 -0.034205537 -0.08421559 0.06522421 -0.0247691 -0.086022936 0.05719724
0.044588074 -0.099617615 0.0982465 -0.017488966 0.088344544 -0.12290169 -0.11561365 0.0030465769
-0.010650829 0.111633055 -0.11905558 -0.09599101 0.11762092 0.11582995 0.09458447 0.0141456695
-0.12388803 0.076106906 0.09486079 -0.0766026 0.08838503 0.0041603646 -0.0966188 0.065156125
-0.051258616 -0.001612816 0.043399245 -0.01741893 0.044362314 0.04988896 0.06018064 0.0004517868
0.06914252 0.00060243235 0.047284506 0.087103516 0.029857133 0.02604369 0.050128564 0.0062288237
0.117818505 -0.04147295 -0.1132478 -0.046764757 0.12313711 0.012607876 -0.04499301 0.12238157
-0.11928475 0.1113806 -0.041186165 -0.033881005 -0.004651905 0.087833 0.053124506 -0.049902156
0.10522889 0.049850807 -0.09690544 0.016017573 0.12134371 0.061647646 -0.06703281 0.009044277
-0.10994443 -0.053138133 0.074245386 -0.084633775 0.022972602 0.0053911298 -0.0030267814 -0.014252905
0.0023883425 0.013645991 0.06495222 -0.0013480573 0.042990975 -0.116489045 0.08312819 -0.013113045
00000000: 473e ac3d 0138 52bd bdcd c7bd 7973 c83d
00000010: d819 8b3c 101d 02bd 44cb c13d 368a ff3d
00000020: 7867 22bd d898 8fbd 49e6 f3bd 8544 1abd
00000030: 93f0 a03d d658 883d b015 ea3c 81fc 4a3d
00000040: 2936 a3bd 55ea d33b 4256 fe3c 99a5 b3bd
00000050: 8446 dabd bd81 f23c 1198 9cbc 0dee 52bd
00000060: 26fd f9bd 7d50 f13d 969e 9b3d 904d 0d3b
00000070: c6ff e03d 08db c63d 2f86 5fbc 257e 683d
00000080: d6a6 db3d b6b2 ce3d 66b8 91bd 516a e73d
00000090: 60a2 9dbd 1360 4dbd 7f95 40bd 2ec1 bc3d
000000a0: 281a 903d d186 f73c ec61 343d 7819 883c
000000b0: c805 d73d b534 1a3d 3791 fb3d f4e4 85bd
000000c0: f476 9ebd beb0 07bc 11ef 02bd d464 ee3d
000000d0: 3c44 d03c 3d06 8a3d 00d6 ddbc bedc 37bd
000000e0: 4d48 943d 70b8 393d 0b66 69bd df0f 883d
000000f0: 60ef fc3d 92c8 d53d 73a1 de3c 3e78 a53c
00000100: 42ab 68bd 6833 b33d e797 92bc 4769 eabc
00000110: 1fce 79bb 7d80 d3bd fa2d c73d 3b80 20bd
00000120: f1a2 ee3d d9dc 533d cf70 c83d a5d1 ab3b
00000130: 26df 27bd e9e5 8cbd 7b8e b43c 3d33 c53d
00000140: 39cc ad3c 26c9 e0bd d8b7 e8bb f05a 7abd
00000150: 154d df3d 07a5 0bbd f615 93bd 7dd4 41bd
00000160: 52e6 293d e1bf 48bd 92ee fe3c d4b3 e4bd
00000170: 4a41 a63d 4c69 abbc 776a af3c 9489 e03d
00000180: ef26 d13d e99e 733d 625e d03b 786e 0bbd
00000190: a4de 41ba 9b59 eebd acbc 033d e1dc 223c
000001a0: b559 993d c194 cb3c 4520 023d 27ed 99bc
000001b0: edb7 733d e119 a93c a398 c9bd 537a b4bd
000001c0: fa6f b83d 7294 abbc 92ba 34bd 6f3b 81bd
000001d0: 840d b63d 2304 7fbd 9151 a7bd acb5 22bc
000001e0: 376b f1bd b5a7 c4bd 3817 bf3d a853 eabd
000001f0: 7fc6 ce3d 798d d7bd 3558 14bd d07d 8cbc
00000200: fffc b63b 8fc1 68bd ff8c 753d 233b 0e3d
00000210: 48f4 b33d 90ec 8dbd b5c9 1ebd d323 c9bd
00000220: dd27 afbd ae46 0dbd d310 b53d 8d38 753b
00000230: 558e bbbd 9e71 e9bd 7e5e b63d 9afe dc3b
00000240: d170 6e3d 9259 2e3c ac3a afbd 0d04 c43c
00000250: 5995 1cbd 3ff3 cebb 7205 8cbd b379 4bbd
00000260: f43d b43d 18e7 16bd 2664 58ba 85c2 bf3d
00000270: 7ba8 1bbd 7a30 8cbd b076 4dbd d2bc eebd
00000280: 5c2b 85bd baff ae3c 8208 8c3d 96f1 983c
00000290: 2995 f13d c8a1 3abd e6a2 963d 1094 f5bd
000002a0: a9cb e6bd 636f 4c3b 1b1b 0cbd 3979 acbd
000002b0: 4594 853d 91e8 cabc cb2c b0bd a747 6a3d
000002c0: fca1 363d 5204 ccbd 7635 c93d 0545 8fbc
000002d0: fced b43d e2b3 fbbd d9c6 ecbd 14a9 473b
000002e0: d180 2ebc df9f e43d 69d3 f3bd ef96 c4bd
000002f0: 3de3 f03d 4138 ed3d 81b5 c13d 3dc3 673c
00000300: 02b9 fdbd f0dd 9b3d 6046 c23d d3e1 9cbd
00000310: 3603 b53d ab53 883b 14e0 c5bd 9370 853d
00000320: 8ef4 51bd 2065 d3ba 68c3 313d 25b2 8ebc
00000330: 42b5 353d 5e58 4c3d fa7f 763d ccdd ec39
00000340: 989a 8d3d 8dec 1d3a 66ad 413d 5463 b23d
00000350: f296 f43c 9459 d53c 9c53 4d3d 291b cc3b
00000360: d44a f13d 8adf 29bd 76ee e7bd 678c 3fbd
00000370: 4f2f fc3d 4491 4e3c 974a 38bd 30a3 fa3d
00000380: 904b f4bd 831b e43d d3b2 28bd cfc6 0abd
00000390: 026f 98bb cae1 b33d 1599 593d 3466 4cbd
000003a0: 3f82 d73d 5c30 4c3d 5c76 c6bd 4937 833c
000003b0: 0d83 f83d 3e82 7c3d 7f48 89bd 722e 143c
000003c0: 8c2a e1bd 5fa7 59bd f70d 983d 7954 adbd
000003d0: 0a31 bc3c 13a8 b03b f75c 46bb 0485 69bc
000003e0: bd85 1c3b 6f93 5f3c ab05 853d 4cb1 b0ba
000003f0: 4e17 303d cf91 eebd 1d3f aa3d 19d8 56bc

lstm.bias_hh_l0 f4 [256]
0.051468503 0.003337004 -0.016695026 -0.069182836 0.015697464 -0.10586852 0.036222875 0.10537095
0.05492337 -0.044730395 0.04828217 0.12822753 -0.022268085 0.067812845 0.024513781 0.016239647
-0.04702985 -0.06292163 0.018837512 -0.0059617674 -0.029226167 -0.07961685 -0.07675142 -0.09348558
0.115729965 -0.0468562 0.010231151 -0.0011164926 0.09754036 -0.09917304 0.10351489 -0.083204076
0.05268457 0.04817897 -0.100122645 0.10545158 -0.12737346 -0.007856843 -0.10929272 -0.12041171
0.028902566 -0.07404286 -0.06762072 0.098977774 -0.10383943 0.039560556 -0.070623554 -0.061816834
0.09689529 -0.019921528 0.08165503 0.01663607 -0.037462495 -0.047917683 -0.07820545 0.06288625
0.038852956 -0.028987905 0.094240606 -0.056382746 0.012643463 -0.1039605 -0.026226021 0.10612144
-0.042743675 -0.01379345 0.0039477223 -0.038980175 0.096123226 -0.012241126 -0.060883507 0.0621135
0.08384075 0.11252446 -0.01827836 0.02339889 -0.03910827 0.10301227 -0.035857975 0.037934657
0.05926655 0.11088766 0.06104994 -0.035914 0.061677415 0.11387816 0.060089067 -0.04088174
0.023617262 0.066396855 -0.05430576 0.11584762 -0.065395884 0.0761909 -0.0458254 -0.07462038
-0.046816766 0.10188505 0.026637932 0.04447421 0.08866343 -0.045693096 0.11602094 0.013049514
-0.055926148 0.11861797 -0.12637599 0.056354754 0.03005353 0.06411153 -0.058291204 -0.021069074
-0.10514194 0.012978502 0.09526806 0.014708049 0.049063846 -0.023956235 0.031604357 0.075179726
0.011968749 -0.11240438 -0.0524054 0.051172197 -0.06275252 0.021158207 -0.013839063 0.049460657
-0.11197264 -0.022284595 -0.00043806626 -0.07352733 0.038815 -0.01220152 -0.077651754 -0.09761458
-0.06655293 0.11576835 -0.08189089 -0.033836268 0.103195734 -0.030444203 0.06071893 -0.01871321
-3.311748e-05 0.021013329 -0.025598276 0.020899395 -0.030362085 0.105155155 -0.05404261 -0.08301567
-0.106481805 0.08281006 -0.036042158 -0.060846373 0.0640964 -0.08735275 -0.05804351 0.116172284
0.10944979 0.038535647 0.04094476 0.05078722 0.052268635 -0.07692677 0.043140553 -0.10395014
-0.0889354 0.097406566 0.0161072 0.07833352 -0.04637751 -0.06514322 0.10011879 -0.08451989
0.10309549 -0.051531494 -0.11310616 0.03222752 0.09153758 0.03279437 -0.008967354 0.10892369
-0.009294228 -0.016875615 0.02000001 0.028918901 0.030132746 0.11386568 -0.095739864 -0.11622318
-0.03131137 -0.030373862 0.06040855 0.05849923 0.093818426 0.061185103 0.11053789 0.047178753
-0.068438746 -0.07989849 -0.113266 0.06920505 0.11166413 0.02271966 -0.05134783 0.039996427
0.09919009 -0.09194959 -0.09878768 0.0690062 0.063181736 -0.019175718 0.028956605 -0.072452046
-0.04385226 0.09619841 0.03482122 -0.055206213 -0.03367029 -0.111703195 0.08571904 0.06078668
0.11759314 -0.106182836 -0.083497226 -0.05301054 -0.12047363 -0.0024365024 0.074130975 -0.08384284
0.044948373 -0.080406636 0.057925567 0.10261512 -0.03522961 0.05671475 0.06922817 0.047273435
-0.069772944 -0.06992297 -0.08974581 -0.027715499 0.09270745 0.05655754 -0.08194044 0.11836588
-0.06681601 0.036054824 -0.035482027 0.10768791 0.11952896 -0.016265808 0.06546476 -0.098769896
00000000: a3d0 523d a3b1 5a3b 02c4 88bc bbaf 8dbd
00000010: f897 803c 98d1 d8bd 705e 143d bacc d73d
00000020: 54f7 603d 3837 37bd 86c3 453d 144e 033e
00000030: 8f6b b6bc 76e1 8a3d 20d1 c83c 0209 853c
00000040: 5fa2 40bd 0edd 80bd 2051 9a3c ee5a c3bb
00000050: b76b efbc 290e a3bd d92f 9dbd 5e75 bfbd
00000060: d503 ed3d 49ec 3fbd 8fa0 273c 4657 92ba
00000070: 3ec3 c73d 3c1b cbbd 9dff d33d e666 aabd
00000080: c7cb 573d 5057 453d 1a0d cdbd fff6 d73d
00000090: 306e 02be fdb9 00bc ddd4 dfbd 6a9a f6bd
000000a0: 13c5 ec3c c8a3 97bd bb7c 8abd dcb4 ca3d
000000b0: c4a9 d4bd 400a 223d 15a3 90bd a633 7dbd
000000c0: 0a71 c63d 7932 a3bc c13a a73d 5e48 883c
000000d0: 4672 19bd 5545 44bd 2e2a a0bd 82ca 803d
000000e0: 4724 1f3d 0b78 edbc 3801 c13d 98f1 66bd
000000f0: 8726 4f3c 3ee9 d4bd f4d7 d6bc 3356 d93d
00000100: fe13 2fbd ecfd 61bc e55b 813b ada9 1fbd
00000110: 41dc c43d 018f 48bc fc60 79bd ba6a 7e3d
00000120: b3b4 ab3d 3973 e63d 80bc 95bc 07af bf3c
00000130: fe2f 20bd 19f8 d23d d0df 12bd 5f61 1b3d
00000140: 7bc1 723d 1219 e33d 800f 7a3d 8f1a 13bd
00000150: 75a1 7c3d f438 e93d f41f 763d 9d73 27bd
00000160: fd78 c13c 13fb 873d b76f 5ebd 8441 ed3d
00000170: 47ee 85bd f909 9c3d 6ab3 3bbd 92d2 98bd
00000180: f0c2 3fbd 1ca9 d03d cb37 da3c 972a 363d
00000190: 2c95 b53d af28 3bbd 639c ed3d a1cd 553c
000001a0: d112 65bd faed f23d b568 01be 3ed4 663d
000001b0: d232 f63c e84c 833d c2c2 6ebd 0d99 acbc
000001c0: a854 d7bd c8a3 543c e71b c33d 07fa 703c
000001d0: 2cf7 483d de3f c4bc 9273 013d d4f7 993d
000001e0: 9218 443c 4534 e6bd 0ba7 56bd f099 513d
000001f0: 6584 80bd fa53 ad3c 3dbd 62bc 4297 4a3d
00000200: e951 e5bd 2f8e b6bc 42ac e5b9 7f95 96bd
00000210: 7afc 1e3d e2e8 47bc e207 9fbd 27ea c7bd
00000220: e74c 88bd f517 ed3d 69b6 a7bd e697 0abd
00000230: 4958 d33d 1f66 f9bc 6ab4 783d 724c 99bc
00000240: a0e7 0ab8 2524 ac3c 7ab3 d1bc 3535 ab3c
00000250: e8b9 f8bc 965b d73d c95b 5dbd 1f04 aabd
00000260: 2213 dabd 5298 a93d f1a0 13bd 0c3a 79bd
00000270: f944 833d 00e6 b2bd 08bf 6dbd bceb ed3d
00000280: 3627 e03d 8ed7 1d3d b1b5 273d 4306 503d
00000290: a317 563d c88b 9dbd 26b4 303d d0e3 d4bd
000002a0: c323 b6bd 187d c73d 3ff3 833c 536d a03d
000002b0: 58f6 3dbd cf69 85bd 150b cd3d c418 adbd
000002c0: ba23 d33d b012 53bd 34a4 e7bd 0101 043d
000002d0: 0e78 bb3d 6453 063d cfeb 12bc 6213 df3d
000002e0: d146 18bc bb3e 8abc 10d7 a33c 55e7 ec3c
000002f0: f3d8 f63c 6932 e93d 4313 c4bd 6b06 eebd
00000300: 5a40 00bd 9bd2 f8bc f56e 773d e39c 6f3d
00000310: e023 c03d 3b9d 7a3d b061 e23d 823e 413d
00000320: 9d29 8cbd d2a1 a3bd 01f8 e7bd 61bb 8d3d
00000330: 2ab0 e43d 951e ba3c 1a52 52bd 4bd3 233d
00000340: 2d24 cb3d 1150 bcbd 3251 cabd 1f53 8d3d
00000350: 6d65 813d 6516 9dbc 6736 ed3c bd61 94bd
00000360: 6d9e 33bd ac03 c53d b2a0 0e3d e91f 62bd
00000370: dce9 09bd a5c4 e4bd 778d af3d 74fb 783d
00000380: acd4 f03d 6376 d9bd 9800 abbd 9421 59bd
00000390: e1ba f6bd baad 1fbb fbd1 973d cbb5 abbd
000003a0: c91b 383d 3cac a4bd 5c43 6d3d e027 d23d
000003b0: ec4c 10bd ba4d 683d 80c7 8d3d caa1 413d
000003c0: 1ee5 8ebd c633 8fbd a7cc b7bd 9d0b e3bc
000003d0: 67dd bd3d e1a8 673d 64d0 a7bd cf69 f23d
000003e0: d5d6 88bd 39ae 133d 9a55 11bd 7b8b dc3d
000003f0: 99cb f43d df3f 85bc 6312 863d df47 cabd

lstm.weight_ih_l0_reverse f4 [256, 100]
-0.043009024 0.028158996 0.020209858 0.03461164 -0.08720667 -0.12062297 0.023522869 -0.019350642
-0.09753486 0.01981263 0.034449283 0.13058719 0.07212954 0.08396697 -0.029572343 -0.043586593
-0.030631695 -0.11990572 0.047402024 0.011381291 -0.12761731 -0.016672298 0.060897257 -0.071963206
0.13673589 0.059499983 -0.049056444 0.035538204 0.03361084 0.05548074 -0.033590984 0.09163561
-0.03288405 0.026990237 0.010474709 0.12765254 -0.12305271 -0.09452331 0.035277016 0.0045364583
0.06531075 -0.025592923 0.018070335 0.033955984 -0.03995648 -0.07331561 -0.05017768 0.10693658
-0.13985726 0.07805492 0.07533773 0.051206857 0.12117998 -0.0028628805 -0.04505162 0.011468725
0.09292553 0.11284874 -0.052884206 0.029515805 -0.08989639 0.08144931 0.07184949 0.10954996
0.016443128 0.01161902 0.076346226 -0.10296482 -0.095734 0.03832798 -0.1194634 0.07667026
-0.04469942 -0.051757526 -0.12678997 0.020647638 -0.07264348 -0.053617243 -0.04315307 0.03480898
0.030246194 -0.049681664 -0.00083047384 -0.0063022645 -0.09559654 0.06352265 0.087885834 0.074071094
0.1376304 -0.01480369 0.07021662 0.053388182 0.06088018 0.005768647 0.09541385 -0.007658727
-0.09362726 0.05276939 -0.058515567 -0.06334478 -0.09105056 -0.06872684 -0.029926425 -0.068488084
-0.12481248 0.054406535 0.09228458 -0.0662244 0.11794348 -0.10111255 0.07585649 -0.0235094
-0.062332768 0.04859568 0.082608655 0.069768935 0.06431097 0.1047492 0.04531917 0.07034946
-0.06312645 -0.084148705 -0.14415237 0.06898057 -0.083657324 -0.060983524 0.049162533 -0.021206275
0.112560876 0.023329686 0.0646099 -0.10810973 0.09493643 0.08099919 -0.009606286 -0.07312574
0.062930964 0.014878395 -0.07815829 -0.01759124 0.09422728 0.036670953 0.006136421 -0.11525408
-0.05453313 -0.035016228 0.0015999828 -0.02778908 0.021726977 -0.097648226 -0.05535127 -0.04382843
0.014723697 0.075965844 0.04070859 -0.083469585 -0.07699673 -0.08319905 0.012669887 0.09951184
0.011163602 -0.032075793 0.061563026 0.03139832 -0.021427153 -0.10225828 0.14313108 0.12954167
-0.13108057 0.06292834 -0.10093908 -0.0054107565 -0.0075839143 1.0541378e-05 0.09607452 -0.039982043
0.06434323 -0.02328621 -0.05584455 0.014803646 -0.11398592 0.08878064 0.015142319 0.07853009
0.0480429 -0.032305524 -0.0040321304 -0.009950044 0.038434874 -0.06548256 -0.029513154 0.07430818
-0.06677507 -0.05435538 0.07596731 -0.09622332 0.105832435 -0.07808637 -0.07043245 -0.09025187
-0.08531069 -0.047986906 -0.096882366 -0.061347988 0.04596784 -0.050884966 -0.037475016 0.06091194
0.03641382 -0.0053446894 0.031825017 0.024321198 -0.11596917 -0.1144545 0.045279443 -0.105488405
-0.0012199901 -0.024504704 -0.01381739 -0.113059044 -0.021172024 -0.04724988 0.072255805 -0.020117896
-0.103796296 -0.0652587 0.0355061 0.014919661 0.049093466 0.08180404 0.049983345 0.015634619
-0.111304626 0.007915471 0.11692438 0.014894529 -0.13849229 0.0030899711 0.089639336 0.0042188847
0.0836168 0.07029418 0.0044515617 0.035128232 -0.055448435 -0.100072734 0.0046572145 -0.07846632
-0.013095377 0.06410211 -0.10049567 -0.041075144 -0.015207918 0.13093628 -0.09069125 0.02364531
00000000: 3b2a 30bd b2ad e63c 258f a53c efc4 0d3d
00000010: 6999 b2bd 2d09 f7bd 08b3 c03c 3d85 9ebc
00000020: 5bc0 c7bd 194e a23c b11a 0d3d a6b8 053e
00000030: a7b8 933d e0f6 ab3d b341 f2bc db87 32bd
00000040: 52ef fabc 2191 f5bd a028 423d 9878 3a3c
00000050: 1dae 02be 5894 88bc 676f 793d 7261 93bd
00000060: 7e04 0c3e 41b6 733d 69ef 48bd 8290 113d
00000070: 85ab 093d c63f 633d b396 09bd 73ab bb3d
00000080: 6db1 06bd a11a dd3c 1d9e 2b3c 59b7 023e
00000090: 0f03 fcbd 7095 c1bd a27e 103d 92a6 943b
000000a0: a4c1 853d 40a8 d1bc 3d08 943c 6e15 0b3d
000000b0: 68a9 23bd 7f26 96bd 1c87 4dbd 9101 db3d
000000c0: be36 0fbe 42db 9f3d ab4a 9a3d 48be 513d
000000d0: 362d f83d 2a9f 3bbb 0c88 38bd 52e7 3b3c
000000e0: be4f be3d 3d1d e73d 1c9d 58bd 21cb f13c
000000f0: 991b b8bd e5ce a63d d325 933d bb5b e03d
00000100: bdb3 863c b45d 3e3c 695b 9c3d 38df d2bd
00000110: 3010 c4bd cdfd 1c3d 3aa9 f4bd 4c05 9d3d
00000120: bd16 37bd b3ff 53bd 3bd5 01be 3c25 a93c
00000130: 1bc6 94bd c19d 5bbd 46c1 30bd dc93 0e3d
00000140: dec6 f73c 007f 4bbd 28b4 59ba 3a83 cebb
00000150: 1ec8 c3bd 2a18 823d 7dfd b33d 96b2 973d
00000160: fcee 0c3e 2d8b 72bc bbcd 8f3d 91ad 5a3d
00000170: 7f5d 793d eb06 bd3b 5668 c33d 0ff6 fabb
00000180: a6bf bfbd b724 583d 05ae 6fbd e8ba 81bd
00000190: b778 babd a8c0 8cbd 4328 f5bc 7b43 8cbd
000001a0: af9d ffbd 63d9 5e3d b3ff bc3d a9a0 87bd
000001b0: 5a8c f13d 1914 cfbd a65a 9b3d c996 c0bc
000001c0: a550 7fbd 440c 473d ba2e a93d 04e3 8e3d
000001d0: 78b5 833d c086 d63d 98a0 393d 6113 903d
000001e0: 7148 81bd 2856 acbd ae9c 13be af45 8d3d
000001f0: 8854 abbd dcc9 79bd a75e 493d c8b8 adbc
00000200: 5186 e63d e61d bf3c 3252 843d a268 ddbd
00000210: 086e c23d e7e2 a53d af63 1dbc f3c2 95bd
00000220: f3e1 803d 83c4 733c 7411 a0bd 811b 90bc
00000230: 3bfa c03d 4834 163d 0814 c93b 550a ecbd
00000240: 225e 5fbd 2d6d 0fbd 84b6 d13a eda5 e3bc
00000250: c6fc b13c cbfb c7bd 03b8 62bd 7185 33bd
00000260: a93b 713c fb93 9b3d 0dbe 263d 1af2 aabd
00000270: 76b0 9dbd 4364 aabd 5c95 4f3c ddcc cb3d
00000280: 8ae7 363c e861 03bd 8329 7c3d 869b 003d
00000290: ff87 afbc ca6c d1bd f490 123e 92a6 043e
000002a0: fc39 06be 93e0 803d 26b9 cebd b74c b1bb
000002b0: 7c82 f8bb e0da 3037 b8c2 c43d 36c4 23bd
000002c0: 62c6 833d b9c2 bebc 41bd 64bd fe8a 723c
000002d0: 7371 e9bd a0d2 b53d 7d17 783c 62d4 a03d
000002e0: a2c8 443d cc52 04bd f61f 84bb 8205 23bc
000002f0: e36d 1d3d b81b 86bd 92c5 f1bc e32e 983d
00000300: 5ec1 88bd bfa3 5ebd c094 9b3d bb10 c5bd
00000310: adbe d83d bfeb 9fbd e33e 90bd f9d5 b8bd
00000320: 5fb7 aebd eb8d 44bd 436a c6bd 0748 7bbd
00000330: c648 3c3d c16c 50bd 677f 19bd cc7e 793d
00000340: a826 153d 8122 afbb f35a 023d 403d c73c
00000350: 3f81 edbd 1f67 eabd f076 393d 4e0a d8bd
00000360: 13e8 9fba 17be c8bc 5662 62bc 808b e7bd
00000370: f470 adbc 1789 41bd dafa 933d 49ce a4bc
00000380: 2793 d4bd 5aa6 85bd d86e 113d 9871 743c
00000390: 3b16 493d e088 a73d 56bb 4c3d 2c14 803c
000003a0: aef3 e3bd e4af 013c 0d76 ef3d 2f08 743c
000003b0: ecd0 0dbe 1d81 4a3b d494 b73d 923e 8a3b
000003c0: 493f ab3d 65f6 8f3d 68de 913b 9fe2 0f3d
000003d0: e61d 63bd eff2 ccbd 8c9b 983b f3b2 a0bd
000003e0: fe8d 56bc f847 833d add0 cdbd 693e 28bd
000003f0: a22a 79bc 2914 063e 56bc b9bd cfb3 c13c

lstm.weight_hh_l0_reverse f4 [256, 64]
-0.0009813041 0.0041492754 0.028677521 0.1268362 0.031979788 -0.06506952 -0.09800186 0.03929584
0.10389739 0.10570803 -0.06538033 -0.09700496 0.0035855072 -0.0018995323 -0.08450716 -0.010449808
0.010405673 -0.12528001 -0.048999425 0.10211566 -0.04047834 -0.09007279 -0.06294425 0.040310893
-0.070242 0.1132185 0.018302131 0.010373669 0.020762475 -0.06663953 -0.09907836 0.013830015
0.09674381 0.039089207 0.08149228 -0.077201046 -0.07055562 -0.054497782 0.04554853 0.08941403
-0.029881634 0.064527154 0.10153679 -0.112362966 0.017563835 -0.09385094 0.05596045 -0.015203121
-0.097844936 -0.04675474 0.053638883 0.06012128 -0.060651828 0.07532762 0.0031050253 0.09826223
0.064400166 -0.07047789 -0.12233387 0.12475824 0.10642295 0.025520943 0.0017590799 0.10034817
0.019744692 -0.07666967 -0.09549887 0.015395483 0.10542592 0.06142848 0.07877544 0.12373723
-0.034625348 0.009113488 -0.09229967 -0.12384479 -0.062156763 0.05157845 0.0833305 0.04458579
-0.023260849 0.10678524 -0.042091724 0.054633193 -0.03450662 -0.07565967 -0.032522302 0.055265386
-0.008678073 0.07867554 0.028237447 0.07852551 0.07237126 0.14757246 0.08271577 0.04597654
0.03935061 -0.10713999 0.069078065 0.107977055 -0.012171864 0.07499073 0.018104058 -0.08663667
-0.0026463952 -0.10397294 -0.0020173427 0.100711256 -0.14232813 -0.06734445 0.07859311 -0.059348214
-0.11081451 0.12991536 -0.05113462 -0.016341157 0.03544724 -0.03274168 0.068736926 0.031075388
0.09320659 -0.102720246 -0.08648563 -0.011797612 -0.11706215 0.008339857 0.037585087 0.056115504
0.07073072 0.13199548 -0.09104192 0.06018009 0.1172197 0.06394669 -0.040274404 0.118696876
-0.0013332141 -0.017148841 0.07716483 -0.040148973 0.08211621 -0.0265865 0.09545646 0.09895475
0.071586005 0.04523913 0.034114234 0.11808502 -0.101942234 -0.08206945 0.008533779 -0.07794295
0.12963964 -0.09931793 0.10456019 0.06335399 0.06376585 0.037010964 -0.08277587 0.033764567
-0.07653798 0.03158168 -0.11428158 0.036392037 -0.06929284 0.068469726 -0.087637454 -0.097506106
0.06628745 0.0892273 0.09554071 -0.049234934 -0.0037728024 0.0067847134 -0.013311196 0.0022848754
0.00048071652 0.053113334 0.06311447 0.02472953 -0.02891736 -0.005900818 0.07584706 0.0088197505
0.07886389 -0.055749204 -0.016334394 -0.0703713 0.0915396 0.09800738 0.050036594 0.08286445
-0.09253689 0.123186156 0.016541475 0.036208175 0.04423743 0.056942593 0.12639081 -0.04911733
0.056823332 -0.088295996 -0.012823364 -0.087659046 -0.08710604 -0.02276368 -0.024222564 0.119522095
-0.021889923 -0.044927903 0.11768544 -0.092922136 0.02268331 0.008163714 0.0779693 -0.13681388
-0.081294104 -0.013650136 -0.023676846 0.020188812 0.0039972845 -0.035188228 0.055721678 0.12010263
-0.113564506 -0.03740891 -0.0016598729 0.10082324 0.108665474 -0.10201728 0.053067293 -0.0839442
0.10199889 0.122402735 0.124352545 0.019795565 -0.102548845 -0.001543343 -0.06403937 -0.0683807
-0.05076659 0.06213677 -0.07310455 -0.09034507 0.10118111 -0.08516996 0.0099156555 0.09451494
0.037499677 -0.0699213 -0.11844792 0.10939666 0.10360093 -0.0752893 -0.07510336 0.03793869
00000000: 1a9f 80ba a5f6 873b 1fed ea3c 59e1 013e
00000010: 3dfd 023d 2b43 85bd 33b5 c8bd adf4 203d
00000020: 28c8 d43d 747d d83d 1fe6 85bd 89aa c6bd
00000030: d4fa 6a3b baf9 f8ba 1712 adbd ac35 2bbc
00000040: 8e7c 2a3c 6749 00be 9fb3 48bd 0422 d13d
00000050: 9ecc 25bd 1578 b8bd eae8 80bd 091d 253d
00000060: 0adb 8fbd 1adf e73d 5aee 953c 52f6 293c
00000070: 1116 aa3c 4e7a 88bd 98e9 cabd 4a97 623c
00000080: 9e21 c63d 011c 203d 6de5 a63d 951b 9ebd
00000090: 777f 90bd 1139 5fbd 1891 3a3d b41e b73d
000000a0: 54ca f4bc d026 843d 85f2 cf3d 8e1e e6bd
000000b0: 08e2 8f3c ec34 c0bd c936 653d 8316 79bc
000000c0: ed62 c8bd e681 3fbd 72b4 5b3d bb41 763d
000000d0: 0d6e 78bd 5e45 9a3d ae7d 4b3b b53d c93d
000000e0: 3ce4 833d b656 90bd 2e8a fabd 4081 ff3d
000000f0: 47f4 d93d 4c11 d13c ed90 e63a 5783 cd3d
00000100: 9fbf a13c fd04 9dbd e994 c3bd 563d 7c3c
00000110: 8be9 d73d 6e9c 7b3d 0555 a13d f269 fd3d
00000120: 4fd3 0dbd bd50 153c 9c07 bdbd 56a2 fdbd
00000130: 1798 7ebd ed43 533d 2ea9 aa3d 979f 363d
00000140: 898d bebc 38b2 da3d 5f68 2cbd 0ec7 5f3d
00000150: d056 0dbd 75f3 9abd 1b36 05bd f55d 623d
00000160: 7a2e 0ebc a420 a13d 3852 e73c fcd1 a03d
00000170: 6237 943d 3c1d 173e e366 a93d e551 3c3d
00000180: 1b2e 213d 366c dbbd cd78 8d3d 1323 dd3d
00000190: 7f6c 47bc bd94 993d f64e 943c 916e b1bd
000001a0: 256f 2dbb c4ef d4bd 6535 04bb b441 ce3d
000001b0: 77be 11be e3eb 89bd 6df5 a03d 1d17 73bd
000001c0: b8f2 e2bd 8808 053e 8972 51bd e4dd 85bc
000001d0: 2031 113d 241c 06bd f2c5 8c3d d091 fe3c
000001e0: 19e3 be3d fe5e d2bd 611f b1bd c54a 41bc
000001f0: 48be efbd e5a3 083c d2f2 193d 5fd9 653d
00000200: 45db 903d d329 073e 3074 babd 667f 763d
00000210: e210 f03d 7bf6 823d c6f6 24bd 5917 f33d
00000220: 3ebf aeba ba7b 8cbc 9808 9e3d 4073 24bd
00000230: 8b2c a83d efcb d9bc ad7e c33d caa8 ca3d
00000240: af9b 923d aa4c 393d 5ebb 0b3d 8fd6 f13d
00000250: 17c7 d0bd 0714 a8bd 43d1 0b3c 8ea0 9fbd
00000260: 41c0 043e 3367 cbbd a723 d63d bdbf 813d
00000270: ac97 823d cf98 173d 6586 a9bd b74c 0a3d
00000280: f2bf 9cbd cb5b 013d 760c eabd d10f 153d
00000290: 68e9 8dbd db39 8c3d 447b b3bd 48b1 c7bd
000002a0: b7c1 873d cdbc b63d d9aa c33d 92aa 49bd
000002b0: 1f41 77bb 4d52 de3b 3417 5abc d9bd 153b
000002c0: ae08 fc39 5e8d 593d 2942 813d 9595 ca3c
000002d0: 19e4 ecbc a65b c1bb b455 9b3d b780 103c
000002e0: 6483 a13d 4759 64bd b5cf 85bc d41e 90bd
000002f0: 1d79 bb3d 18b8 c83d 2cf3 4c3d d6b4 a93d
00000300: fb83 bdbd 0649 fc3d fd81 873c 064f 143d
00000310: 4f32 353d a33c 693d 986c 013e 412f 49bd
00000320: 95bf 683d 88d4 b4bd 1619 52bc 9686 b3bd
00000330: a764 b2bd e67a babc 666e c6bc 00c8 f43d
00000340: 7f52 b3bc 5206 38bd 1005 f13d f64d bebd
00000350: 59d2 b93c 19c1 053c 5eae 9f3d f018 0cbe
00000360: 867d a6bd d2a4 5fbc f2f5 c1bc 0263 a53c
00000370: a7fb 823b 8821 10bd 6a3c 643d 5ef8 f53d
00000380: 8294 e8bd 163a 19bd 1890 d9ba 6a7c ce3d
00000390: 018c de3d 70ee d0bd 175d 593d f0ea abbd
000003a0: cbe4 d03d 49ae fa3d 8cac fe3d 4f2a a23c
000003b0: 2105 d2bd ff49 caba 1327 83bd 2e0b 8cbd
000003c0: a1f0 4fbd 2083 7e3d d7b7 95bd d606 b9bd
000003d0: 0b38 cf3d 976d aebd 4675 223c 0d91 c13d
000003e0: 4399 193d e632 8fbd d394 f2bd 5b0b e03d
000003f0: b92c d43d 4731 9abd cacf 99bd 9a65 1b3d

lstm.bias_ih_l0_reverse f4 [256]
-0.034460787 0.037091266 0.03043678 -0.1153335 0.037420686 -0.064467564 -0.069475025 -0.006610452
-0.020752443 -0.11930483 0.03411242 0.110674806 -0.018120011 0.08143714 -0.09053378 -0.038315807
-0.046735287 0.08898795 0.10811539 -0.04216006 -0.0026602622 0.05238317 -0.039909165 -0.057682365
0.11083154 -0.08070444 -0.072828166 -0.009221306 0.107638486 0.025168197 -0.054590207 0.04038468
0.004543816 -0.0011402175 -0.08411377 -0.060696173 0.039321885 0.01688174 -0.019094467 -0.03752569
0.11140754 -0.008795228 0.064147145 0.0031734365 0.060313728 0.067770705 0.0076912073 0.060338717
0.023506373 0.002568766 0.0510475 -0.12563848 0.101505645 0.03624158 -0.0053850682 0.070578575
-0.05264916 0.10533207 -0.018486315 0.09339385 0.06936446 -0.03854436 -0.08784555 -0.07224272
-0.02770965 0.05801998 -0.09164551 -0.12516418 -0.120068215 -0.036605123 -0.09525588 -0.004935632
-0.09268602 0.034549564 -0.070267394 -0.06960724 -0.06214472 0.0659364 0.109986 -0.04481963
-0.041241515 -0.016333241 0.03269636 0.035832863 -0.051150862 -0.10529333 -0.09139397 0.06644094
-0.069592826 0.006993867 0.0838354 -0.0136298565 0.045589335 -0.025275363 0.006249782 -0.060585987
-0.061424367 -0.013492893 0.03222798 0.07311143 -0.054737896 -0.10668784 -0.072776414 0.05194233
-0.028854832 0.117644735 -0.0041249497 -0.019118104 -0.055630967 -0.07612671 0.1184953 -0.094007805
0.082985416 -0.007453594 0.0018786606 -0.055670228 -0.11054026 0.0903045 0.1170598 -0.07495929
-0.004463605 -0.0849008 0.090370074 0.07011852 -0.04509366 0.07354992 0.055448815 -0.043221023
-0.10437607 0.018909024 -0.06335383 -0.076281 -0.011261871 0.0062772166 0.016104544 -0.08363775
-0.011083834 -0.044226125 -0.019223014 0.11487697 0.027408538 0.031551175 0.10388442 0.081982955
0.113090225 -0.049654294 -0.087601505 -0.04126367 0.028400358 0.051492404 0.050548393 -0.11009886
0.0940301 0.0035274772 -0.088357136 -0.020783156 0.062681586 -0.0027019123 0.093674056 0.042063884
0.06593431 -0.09348342 -0.06884548 -0.021665873 0.0551724 -0.020850308 -0.024398535 0.01888777
-0.037046067 0.053177148 0.010206477 -0.07978928 -0.040985886 0.118162975 -0.008684233 0.080861986
-0.023771817 -0.025875075 0.048375238 0.044770744 0.06260515 -0.018227233 0.0805443 0.043213435
0.11733487 -0.05816426 0.056756537 0.112206794 -0.1300042 0.109195665 0.075023115 0.10270292
-0.097514346 0.122915804 0.0087107355 0.08148485 -0.047796316 -0.124708466 -0.09725229 0.10891865
0.051104736 0.005438843 -0.05138484 -0.053437956 -0.0641366 -0.08125541 0.07204094 -0.083861485
-0.086987026 -0.08648654 -0.006255132 0.022197245 0.006158679 -0.007984584 0.09325701 -0.0006060111
-0.08304325 0.119788915 0.09815272 -0.03742162 0.09984262 -0.029183434 -0.11872574 -0.03142061
0.005979012 0.08075898 -0.10253267 0.023986898 -0.053100307 0.10449343 -0.06981186 0.0015352864
0.0946105 -0.060665946 -0.06904569 0.07048574 -0.12044742 -0.08934152 0.059662126 0.054647613
0.026145888 -0.03257817 -0.058912855 0.03314707 0.013880811 -0.019685052 0.0024912897 0.006094813
0.009130347 -0.087687254 -0.12106994 -0.06446518 0.07532588 -0.11782004 0.05797957 0.058103897
00000000: c126 0dbd 03ed 173d 8e56 f93c f833 ecbd
00000010: 6f46 193d 9207 84bd ec48 8ebd 7e9c d8bb
00000020: 0701 aabc 1756 f4bd 77b9 0b3d 79a9 e23d
00000030: 6b70 94bc 84c8 a63d c669 b9bd 09f1 1cbd
00000040: 806d 3fbd 503f b63d 9a6b dd3d 07b0 2cbd
00000050: cb57 2ebb bc8f 563d cb77 23bd 5844 6cbd
00000060: a5fb e23d 5f48 a5bd ef26 95bd f614 17bc
00000070: 9171 dc3d 892d ce3c fb99 5fbd 686a 253d
00000080: 4be4 943b 5a73 95ba d743 acbd 8d9c 78bd
00000090: fc0f 213d 934b 8a3c 006c 9cbc 8ab4 19bd
000000a0: a329 e43d dc19 10bc 945f 833d 6ef9 4f3b
000000b0: 870b 773d 5ecb 8a3d 8606 fc3b bb25 773d
000000c0: 7090 c03c be58 283b 2f17 513d 60a7 00be
000000d0: 31e2 cf3d 0d72 143d 3a75 b0bb 808b 903d
000000e0: a5a6 57bd 57b8 d73d 9d70 97bc 4645 bf3d
000000f0: f40e 8e3d b1e0 1dbd 5ee8 b3bd fef3 93bd
00000100: 59ff e2bc 5ca6 6d3d a4b0 bbbd 0a2b 00be
00000110: 53e6 f5bd 41ef 15bd 8415 c3bd 15bb a1bb
00000120: 2bd2 bdbd d883 0d3d 5ae8 8fbd 3e8e 8ebd
00000130: 768b 7ebd aa09 873d 5740 e13d ca94 37bd
00000140: ddec 28bd 4acd 85bc 9eec 053d 7bc5 123d
00000150: 9183 51bd 08a4 d7bd c32c bbbd 3012 883d
00000160: af86 8ebd cf2c e53b e5b1 ab3d c34f 5fbc
00000170: e2bb 3a3d 470e cfbc f9ca cc3b 0329 78bd
00000180: 1e98 7bbd 4c11 5dbc 7d01 043d 72bb 953d
00000190: d834 60bd 277f dabd cd0b 95bd 7bc1 543d
000001a0: f860 ecbc b9ef f03d 962a 87bb 929d 9cbc
000001b0: 4cdd 63bd 52e8 9bbd aaad f23d 2a87 c0bd
000001c0: 42f4 a93d 473d f4bb 643d f63a 7706 64bd
000001d0: ef62 e2bd 91f1 b83d 0cbd ef3d 4284 99bd
000001e0: 6f43 92bb 78e0 adbd f213 b93d 4c9a 8f3d
000001f0: 21b4 38bd 57a1 963d 4c1e 633d 8708 31bd
00000200: 1fc3 d5bd 19e7 9a3c a7bf 81bd 3739 9cbd
00000210: b683 38bc 1cb1 cd3b aded 833c 454a abbd
00000220: f898 35bc 7426 35bd 9579 9dbc 9e44 eb3d
00000230: df87 e03c ce3b 013d 5bc1 d43d aee6 a73d
00000240: d99b e73d 4d62 4bbd 6b68 b3bd 1804 29bd
00000250: dea7 e83c b3e9 523d d50b 4f3d 837b e1bd
00000260: da92 c03d 3f2d 673b 96f4 b4bd 7041 aabc
00000270: 345f 803d 9112 31bb 2fd8 bf3d 2e4b 2c3d
00000280: 9108 873d 3c74 bfbd dcfe 8cbd a17c b1bc
00000290: 74fc 613d 44ce aabc 70df c7bc 86ba 9a3c
000002a0: 9ebd 17bd 48d0 593d 1139 273c 9068 a3bd
000002b0: d1e0 27bd 6eff f13d 5048 0ebc f89a a53d
000002c0: 1dbd c2bc f7f7 d3bc 1d25 463d 8761 373d
000002d0: 2137 803d 4751 95bc 69f4 a43d 9200 313d
000002e0: 444d f03d a63d 6ebd 8b79 683d adcc e53d
000002f0: d21f 05be faa1 df3d b8a5 993d e955 d23d
00000300: 9ab5 c7bd 48bb fb3d 79b7 0e3c 87e1 a63d
00000310: 12c6 43bd 2767 ffbd 352c c7bd be10 df3d
00000320: 3353 513d 5238 b23b e978 52bd c2e1 5abd
00000330: 0d5a 83bd 3d69 a6bd 338a 933d 92bf abbd
00000340: 4126 b2bd db1f b1bd daf7 ccbb ffd6 b53c
00000350: bece c93b c6d1 02bc 88fd be3d b7dc 1eba
00000360: 9412 aabd e453 f53d 4b04 c93d 6a47 19bd
00000370: 4a7a cc3d 1912 efbc 7b26 f3bd e6b2 00bd
00000380: 97eb c33b f764 a53d a6fc d1bd 2c80 c43c
00000390: b57f 59bd a700 d63d 85f9 8ebd aa3b c93a
000003a0: 26c3 c13d db7c 78bd d467 8dbd d45a 903d
000003b0: 23ad f6bd b0f8 b6bd 4660 743d 2dd6 5f3d
000003c0: e72f d63c b070 05bd 9b4e 71bd 39c5 073d
000003d0: 576c 633c 8c42 a1bc e844 233b ffb6 c73b
000003e0: 7397 153c 6095 b3bd 84f3 f7bd 5206 84bd
000003f0: 7444 9a3d a24b f1bd fc7b 6d3d 5afe 6d3d
